{"class_name": "Sequential", "keras_version": "2.1.1", "backend": "tensorflow", "config": [{"class_name": "Conv2D", "config": {"use_bias": true, "kernel_initializer": {"class_name": "VarianceScaling", "config": {"seed": null, "scale": 1.0, "distribution": "uniform", "mode": "fan_avg"}}, "bias_initializer": {"class_name": "Zeros", "config": {}}, "activation": "relu", "trainable": true, "bias_constraint": null, "dilation_rate": [1, 1], "name": "conv2d_1", "bias_regularizer": null, "data_format": "channels_last", "kernel_constraint": null, "filters": 32, "kernel_size": [3, 3], "dtype": "float32", "batch_input_shape": [null, 32, 32, 3], "padding": "same", "kernel_regularizer": null, "activity_regularizer": null, "strides": [1, 1]}}, {"class_name": "Conv2D", "config": {"kernel_initializer": {"class_name": "VarianceScaling", "config": {"seed": null, "scale": 1.0, "distribution": "uniform", "mode": "fan_avg"}}, "bias_initializer": {"class_name": "Zeros", "config": {}}, "activation": "relu", "trainable": true, "bias_constraint": null, "dilation_rate": [1, 1], "name": "conv2d_2", "bias_regularizer": null, "data_format": "channels_last", "kernel_constraint": null, "filters": 32, "kernel_size": [3, 3], "use_bias": true, "padding": "same", "kernel_regularizer": null, "activity_regularizer": null, "strides": [1, 1]}}, {"class_name": "MaxPooling2D", "config": {"data_format": "channels_last", "strides": [2, 2], "padding": "valid", "trainable": true, "pool_size": [2, 2], "name": "max_pooling2d_1"}}, {"class_name": "Dropout", "config": {"seed": null, "trainable": true, "noise_shape": null, "name": "dropout_1", "rate": 0.25}}, {"class_name": "Conv2D", "config": {"kernel_initializer": {"class_name": "VarianceScaling", "config": {"seed": null, "scale": 1.0, "distribution": "uniform", "mode": "fan_avg"}}, "bias_initializer": {"class_name": "Zeros", "config": {}}, "activation": "relu", "trainable": true, "bias_constraint": null, "dilation_rate": [1, 1], "name": "conv2d_3", "bias_regularizer": null, "data_format": "channels_last", "kernel_constraint": null, "filters": 64, "kernel_size": [3, 3], "use_bias": true, "padding": "same", "kernel_regularizer": null, "activity_regularizer": null, "strides": [1, 1]}}, {"class_name": "Conv2D", "config": {"kernel_initializer": {"class_name": "VarianceScaling", "config": {"seed": null, "scale": 1.0, "distribution": "uniform", "mode": "fan_avg"}}, "bias_initializer": {"class_name": "Zeros", "config": {}}, "activation": "relu", "trainable": true, "bias_constraint": null, "dilation_rate": [1, 1], "name": "conv2d_4", "bias_regularizer": null, "data_format": "channels_last", "kernel_constraint": null, "filters": 64, "kernel_size": [3, 3], "use_bias": true, "padding": "valid", "kernel_regularizer": null, "activity_regularizer": null, "strides": [1, 1]}}, {"class_name": "MaxPooling2D", "config": {"data_format": "channels_last", "strides": [2, 2], "padding": "valid", "trainable": true, "pool_size": [2, 2], "name": "max_pooling2d_2"}}, {"class_name": "Dropout", "config": {"seed": null, "trainable": true, "noise_shape": null, "name": "dropout_2", "rate": 0.25}}, {"class_name": "Flatten", "config": {"trainable": true, "name": "flatten_1"}}, {"class_name": "Dense", "config": {"kernel_initializer": {"class_name": "VarianceScaling", "config": {"seed": null, "scale": 1.0, "distribution": "uniform", "mode": "fan_avg"}}, "kernel_constraint": null, "activation": "relu", "trainable": true, "bias_constraint": null, "activity_regularizer": null, "name": "dense_1", "bias_regularizer": null, "bias_initializer": {"class_name": "Zeros", "config": {}}, "units": 512, "use_bias": true, "kernel_regularizer": null}}, {"class_name": "Dropout", "config": {"seed": null, "trainable": true, "noise_shape": null, "name": "dropout_3", "rate": 0.5}}, {"class_name": "Dense", "config": {"kernel_initializer": {"class_name": "VarianceScaling", "config": {"seed": null, "scale": 1.0, "distribution": "uniform", "mode": "fan_avg"}}, "kernel_constraint": null, "activation": "softmax", "trainable": true, "bias_constraint": null, "activity_regularizer": null, "name": "dense_2", "bias_regularizer": null, "bias_initializer": {"class_name": "Zeros", "config": {}}, "units": 2, "use_bias": true, "kernel_regularizer": null}}]}